Pytorch/trained/cnn.pth (torch, 250839 bytes, 10 tensors)

conv1.weight f4 [6, 3, 5, 5]
0	0xbdb7af32	-0.08968963
1	0x3dcdd035	0.10049478
2	0x3da1bb96	0.07897107
3	0x3cf9bbd1	0.030485066
4	0x3c8fdd07	0.017561449
5	0xbd404ab8	-0.046946257
6	0xbdc39dbb	-0.09551569
7	0x3cc4a12d	0.024002636
8	0x3d94f68f	0.0727359
9	0x3dd0bc9a	0.10192223
10	0xbe02ea4b	-0.12784688
11	0x3c2aba21	0.010420353
12	0xba987f52	-0.0011634624
13	0xbb718261	-0.0036851394
14	0x3dcae86e	0.09907614
15	0x3d8fa987	0.07014757
16	0xbdfe2b0f	-0.124105565
17	0xbd456b8b	-0.048198264
18	0x3cc27769	0.02373858
19	0xbcd1c208	-0.025605217
20	0x3d951db9	0.0728106
21	0xbddc7310	-0.10764134
22	0x3d555d66	0.052091025
23	0xbd52ab23	-0.05143274
24	0x3cacf002	0.021110538
25	0x3cb9cf8e	0.022681978
26	0x3a74ab90	0.0009333426
27	0xbb7140ee	-0.0036812383
28	0x3d7236ae	0.059134178
29	0x3b837d7e	0.0040127626
30	0xbd128c63	-0.035778414
31	0x3cd09a29	0.025464134
32	0x3d672a10	0.0564366
33	0x3d8b3b75	0.0679845
34	0x3c9b061c	0.018923812
35	0xbdaed22e	-0.08536182
36	0xbd29c387	-0.041446235
37	0xbda2c04f	-0.07946836
38	0xbdb3cbb8	-0.08779091
39	0xbdc1899d	-0.09450076
40	0xbd110ae5	-0.03541078
41	0xbd0f5d6c	-0.035001203
42	0xbd8f119f	-0.06985783
43	0xbda76086	-0.08172707
44	0xbca7717e	-0.02043986
45	0x3c0c0469	0.008545973
46	0xbd74b8b1	-0.059746448
47	0x3d8f3015	0.06991593
48	0x3db2d93e	0.08732842
49	0x3dab6563	0.08368947
50	0x3e44bf1d	0.19213529
51	0x3d8aef53	0.06783929
52	0x3e33ee08	0.1757127
53	0x3e4e05bc	0.20119375
54	0x3da0b168	0.078463376
55	0x3d9f0977	0.07765477
56	0x3e4b6ef0	0.19866538
57	0x3df1740b	0.117897116
58	0x3dacbeb3	0.084348105
59	0x3d5a58c0	0.053307295
60	0x3dc39887	0.09550577
61	0x3e3747b6	0.1789845
62	0x3db81add	0.08989499
63	0x3decb73c	0.11558387
64	0xbd1af462	-0.037830718
65	0x3dff7a87	0.12474542
66	0x3e41d687	0.18929492
67	0x3e45da27	0.193215
68	0x3dc24d8c	0.09487447
69	0x3d9945e9	0.074840374
70	0x3d679f0e	0.05654817
71	0x3e19b3b7	0.15009962
72	0x3e28b4d6	0.16475233
73	0x3d056148	0.032563478
74	0xbb3bfb05	-0.0028683555
75	0x3d1eb295	0.038744528
76	0xbd300a95	-0.04297884
77	0x3c4bb2ea	0.012432793
78	0x3e08a7b2	0.1334522
79	0x3e14fc4b	0.14549367
80	0xbd89331c	-0.066992015
81	0x3d451d89	0.04812387
82	0x3d9b3649	0.075787134
83	0x3de7d09c	0.11319086
84	0x3e6a348f	0.22871612
85	0xbde63dfa	-0.1124229
86	0xbe5290ec	-0.20563096
87	0x3d4f29be	0.050576918
88	0x3e5dffd0	0.21679616
89	0x3e5a8366	0.21339187
90	0xbe3aaf29	-0.18230881
91	0xbe5b87cc	-0.21438521
92	0x3d04ce93	0.032423567
93	0x3e262d09	0.16228117
94	0x3d828644	0.063732654
95	0xbdd8ac2e	-0.10579716
96	0xbe1168f5	-0.14200194
97	0x3db2dc02	0.087333694
98	0x3e2057da	0.15658513
99	0x3e49824a	0.19678608
100	0xbe416beb	-0.18888824
101	0xbe0d6912	-0.13809612
102	0xbda24426	-0.079231545
103	0xbd3df48d	-0.0463758
104	0xbd2508c4	-0.040291563
105	0xbe3d360c	-0.18477648
106	0xbe1a2a49	-0.15055193
107	0xbde560d6	-0.112001106
108	0xbd798849	-0.060920987
109	0xbcf07cd9	-0.029356407
110	0xbdea3ef0	-0.114377856
111	0xbe3cd429	-0.18440308
112	0xbda26310	-0.07929051
113	0x3d4c3707	0.049857166
114	0x3dc96091	0.09832872
115	0xbdf91396	-0.12161939
116	0xbd8c3b89	-0.06847293
117	0x3dc7a806	0.09748845
118	0x3e20a839	0.15689172
119	0x3d31f0b2	0.043442436
120	0xbe0c3113	-0.13690595
121	0xbd3d8326	-0.04626765
122	0xbdc66c3d	-0.096886136
123	0x3e0c7642	0.13716987
124	0x3e018ac2	0.12650588
125	0xbd80388b	-0.06260785
126	0xbd5e4763	-0.0542673
127	0x3d55d7d0	0.052207768
128	0x3dc52b47	0.09627395
129	0x3db00d43	0.085962795
130	0xbe3d45ac	-0.18483609
131	0xbdafc1fa	-0.0858192
132	0x3d8d2bcc	0.06893119
133	0x3def92da	0.116979316
134	0x3e39e3e0	0.18153334
135	0xbe30117f	-0.17194174
136	0xbe74810a	-0.2387735
137	0x3d908b05	0.07057766
138	0x3e22785c	0.15866226
139	0x3e32c1fe	0.17456815
140	0xbdcc991b	-0.0999014
141	0xbe5bbf54	-0.21459705
142	0x3d704710	0.05866152
143	0x3df77ea2	0.120847
144	0x3d897db0	0.06713426
145	0xbe1f3c55	-0.15550359
146	0xbdda5445	-0.106606044
147	0x3b6619ab	0.0035110514
148	0x3e045bd6	0.12925658
149	0x3de91526	0.11380987
150	0xbe2f8f09	-0.17144407
151	0xbde67d78	-0.112544
152	0xbe65b658	-0.2243284
153	0xbe21c8ca	-0.15799251
154	0xbd9c24c1	-0.07624198
155	0xbe2bfa25	-0.16794641
156	0xbe383f85	-0.17992981
157	0xbdbda332	-0.09259643
158	0xbc354824	-0.011064563
159	0xbda669b4	-0.0812563
160	0xbc9d6e32	-0.019217584
161	0xbe11c1e7	-0.14234124
162	0x3d43650e	0.047703795
163	0xbd1a3533	-0.03764839
164	0xbd740979	-0.059579346
165	0xbe02b0ad	-0.12762709
166	0xbe3c2b6c	-0.18375939
167	0xbe403ee2	-0.18773988
168	0xbda8cf6c	-0.082426876
169	0xbdfa8a06	-0.12233357
170	0xbd2fce14	-0.04292114
171	0xbd48b6d4	-0.049002483
172	0xbe08280b	-0.13296525
173	0xbe0f060c	-0.1396715
174	0xbd879f91	-0.06622232
175	0x3cdfb5b0	0.027308315
176	0x3c8fab17	0.017537637
177	0xbda044c2	-0.078256145
178	0xbd6c198d	-0.057641555
179	0x3ccd9f71	0.025100442
180	0x3d872b31	0.06600035
181	0xbd955a0a	-0.07292564
182	0x3d43661d	0.047704805
183	0xbc7d5388	-0.01546181
184	0xbcba8e23	-0.022772854
185	0xbcbbf48e	-0.022943761
186	0x3e07a055	0.13244756
187	0xbcdbcbf2	-0.026830647
188	0x3d11442a	0.035465397
189	0x3dd9238b	0.106024824
190	0x3c9a25e9	0.018816905
191	0x3de69f80	0.11260891
192	0x3d0ac667	0.033880617
193	0x3dd4558b	0.103678785
194	0x3d2e54b9	0.042561267
195	0xbd9782ce	-0.07397996
196	0xbe1bd8ab	-0.15219371
197	0xbc83d652	-0.016093407
198	0xbcffdc5c	-0.031233005
199	0x3d312d06	0.04325583
200	0xbd3915d9	-0.04518685
201	0x3e0526db	0.13003103
202	0x3db59b05	0.08867458
203	0x3c9fe2eb	0.019517383
204	0x3d601cf3	0.054715108
205	0x3e3c8474	0.18409902
206	0x3dc0532e	0.09390865
207	0x3e6f094d	0.23343392
208	0x3e61873f	0.22024249
209	0x3e71d605	0.23616798
210	0xbc1f7ec1	-0.00973481
211	0x3e027475	0.12739737
212	0x3ddbb9fb	0.10728832
213	0x3d0b3c2f	0.033992942
214	0x3e487860	0.1957717
215	0x3e111b9c	0.14170688
216	0x3e5f8283	0.2182713
217	0x3e6f528b	0.23371331
218	0x3e3d57d4	0.18490535
219	0x3dfc7a9c	0.123280734
220	0xbb37b53c	-0.0028031608
221	0xbd03858f	-0.032109793
222	0x3d497863	0.049187075
223	0x3cd4a0d7	0.0259556
224	0xbd3f70dd	-0.046738494
225	0x3c14ec86	0.009089595
226	0x3caee9a6	0.021351647
227	0xbdf7fa81	-0.12108327
228	0xbc8d18ee	-0.017223801
229	0x3d3ba1b2	0.0458085
230	0x3d8da76b	0.06916698
231	0x3e830411	0.2558904
232	0x3e789bfa	0.2427825
233	0x3de1f699	0.11033363
234	0x3e333658	0.17501199
235	0x3dce264b	0.100658976
236	0x3e869215	0.26283327
237	0x3e3d0419	0.18458594
238	0x3e4c9eac	0.19982404
239	0x3e3c033d	0.1836061
240	0xbe14849b	-0.1450371
241	0x3ce5a350	0.028031975
242	0xbd7a4589	-0.06110147
243	0x3bfaeefb	0.007657883
244	0x3d7460fe	0.05966281
245	0xbe452106	-0.19250879
246	0xbdc22b37	-0.09480899
247	0xbe0e9624	-0.13924462
248	0xbe023f23	-0.12719397
249	0xbe684f90	-0.226866
250	0xbe367ec7	-0.17821799
251	0xbda236f7	-0.0792064
252	0xbe3f0c57	-0.18657051
253	0x3cfbcdde	0.030737814
254	0xbd41d7f6	-0.047325097
255	0xbdd8017e	-0.105471596

conv1.bias f4 [6]
0	0x3dce577e	0.100752816
1	0x3cf5b411	0.029993089
2	0x3ebed149	0.37269047
3	0xbe4e0efd	-0.20122905
4	0x3eeafc5e	0.45895666
5	0x3e29d546	0.16585264

conv2.weight f4 [16, 6, 5, 5]
0	0x3d35caf7	0.044383015
1	0x3d7982a7	0.060915615
2	0xbcc8b63b	-0.024500957
3	0x3d037e1e	0.032102697
4	0xbd2a78ac	-0.041618988
5	0xbd99dd66	-0.075129315
6	0xbd1d31d8	-0.038377613
7	0x3c604b63	0.013689849
8	0x3d597488	0.05308965
9	0xbd663165	-0.05619945
10	0xbda4e1ff	-0.08050918
11	0x3983d5e6	0.00025145634
12	0x3c1eb9dc	0.009687867
13	0xbd9e7edc	-0.0773904
14	0x3d18aa29	0.037271652
15	0xbc4c794f	-0.012480094
16	0xbd2db8ed	-0.042412687
17	0xbd5ce450	-0.053928673
18	0x3cfc752a	0.030817587
19	0xbd37a5bb	-0.044835787
20	0xbd182cea	-0.03715221
21	0x3cdfc29c	0.027314477
22	0x3cffcdb7	0.031226022
23	0x3c89076b	0.01672717
24	0xbd7f9573	-0.062398385
25	0x3d287ad2	0.041132756
26	0x3a83ae6b	0.0010046487
27	0xbcd6dd3d	-0.026228542
28	0x3d79e22b	0.061006706
29	0xbd921a2a	-0.07133897
30	0x3cf5309d	0.029930407
31	0xbcabfd81	-0.020994904
32	0xbce0e554	-0.027453102
33	0xbd513fe9	-0.05108634
34	0x3d80a469	0.06281359
35	0x3d926e41	0.071499355
36	0x3d6e2352	0.058139153
37	0x3d834048	0.06408745
38	0xbaacec67	-0.0013193012
39	0x3c8b61f8	0.017014489
40	0xbd8eb1e0	-0.06967521
41	0xbc5675ae	-0.01308958
42	0xbd624716	-0.055243574
43	0x3d687784	0.056754604
44	0x3c07146b	0.008244614
45	0x3c1a63d1	0.009423212
46	0xbde89726	-0.11356954
47	0xbd439c70	-0.047756612
48	0xbdfe5873	-0.12419214
49	0x3c21d224	0.009876762
50	0x3d33d119	0.043900583
51	0x3d35ebac	0.044414207
52	0x3da38428	0.07984191
53	0xbd25da64	-0.040491477
54	0xbc9c6691	-0.019091876
55	0x3da841ea	0.08215697
56	0xbd1550d5	-0.03645404
57	0x3c27afe6	0.010234809
58	0xbceab913	-0.028652703
59	0x3d92c7ff	0.071670525
60	0x3d074fc9	0.033035073
61	0xbd1d074e	-0.038337044
62	0xbd59c085	-0.053162117
63	0xbbeeb71c	-0.007285012
64	0x3cd5faa9	0.0261205
65	0x3d1f4e7e	0.038893215
66	0xbd19e9ac	-0.037576362
67	0xbd55f14f	-0.052232083
68	0xbd2ecc5e	-0.04267537
69	0x3b833a5f	0.004004761
70	0xbd682ceb	-0.056683462
71	0x3b5fd494	0.0034153806
72	0x3bb52c41	0.005528957
73	0x3cf592c2	0.029977206
74	0x3cc55216	0.024086993
75	0xbd83cfcf	-0.06436121
76	0xbd11cb34	-0.03559418
77	0xbc927567	-0.017878247
78	0xbd9388ed	-0.07203851
79	0xbd2de951	-0.042458836
80	0x3d33fd63	0.04394282
81	0x3c123916	0.008924743
82	0x3cea0604	0.028567322
83	0xbd88e5e5	-0.06684474
84	0x3c1ab7a2	0.009443196
85	0x3ccd3042	0.025047425
86	0x3df0d55b	0.11759444
87	0x3db22a5c	0.08699486
88	0x3d184d27	0.037182953
89	0x3c8a3af3	0.016873812
90	0xbaca86a2	-0.0015451501
91	0xbd8801b8	-0.06640953
92	0x3c495130	0.012287423
93	0xbd133b17	-0.035945024
94	0xbd9cb176	-0.076510355
95	0x3d76f401	0.060291294
96	0x3c49e222	0.012321981
97	0x3d8bee61	0.068325765
98	0x3d2d4125	0.042298455
99	0x3c8ba8c3	0.017048245
100	0xba769891	-0.00094068894
101	0xbc898e95	-0.016791621
102	0x3c006642	0.00783688
103	0x3d35f17e	0.044419758
104	0x3d7bcaa1	0.06147254
105	0x3dc1e3f8	0.0946731
106	0xbc3e3a5c	-0.011610594
107	0x3da3df80	0.080016136
108	0xbcadb9e4	-0.021206804
109	0x3c6f7991	0.014616386
110	0xbd4c480c	-0.049873397
111	0xbd237654	-0.03990777
112	0x3ca66ec4	0.020316489
113	0xbc9e24f3	-0.019304728
114	0x3d8aac81	0.06771184
115	0x3c58b3dc	0.013226476
116	0xbd7c5202	-0.061601646
117	0x3d9f256a	0.07770808
118	0xbd2b88e3	-0.041878592
119	0xbd785955	-0.06063207
120	0x3bbed656	0.0058238907
121	0xbc3102ae	-0.010803862
122	0xbd7b645a	-0.061375
123	0x3d7f354b	0.062306684
124	0xbd7b055b	-0.061284404
125	0xbc03effd	-0.008052823
126	0xbd29ab7b	-0.041423302
127	0xbbf2966f	-0.007403187
128	0xbd15d952	-0.036584206
129	0xba23434b	-0.0006227984
130	0x3daa057f	0.083018295
131	0xbd1d439b	-0.03839455
132	0xbd209fe9	-0.039215002
133	0xbd269a25	-0.040674347
134	0x3db52f51	0.088469155
135	0x3d9a0766	0.075209424
136	0x3dd62c6c	0.104576916
137	0x3db07d5b	0.0861766
138	0xbbb35450	-0.0054726973
139	0x3cc9fc9f	0.024656592
140	0x3da4105a	0.08010931
141	0x3df43bae	0.119254455
142	0x3d734f55	0.05940183
143	0x3c8e3cbb	0.017362943
144	0xbd0196e9	-0.03163806
145	0xbe3b037c	-0.18263048
146	0xbe0dc68d	-0.13845272
147	0xbda419b9	-0.08012719
148	0xbd0ec6ad	-0.03485744
149	0xbd473407	-0.0486336
150	0xbc1cd00f	-0.009571089
151	0xbcd12614	-0.025530852
152	0xbd26697b	-0.040627938
153	0x3d80a659	0.06281728
154	0x3d95c030	0.073120475
155	0xbd8b1d4f	-0.067926995
156	0x3d59010b	0.05297951
157	0xbd301ca7	-0.042996075
158	0x3d2132c1	0.039355043
159	0x3d7b83a3	0.061404835
160	0x3cd6c93b	0.026219001
161	0xbdb08fa6	-0.08621149
162	0x3db09bad	0.08623443
163	0x3c554700	0.013017416
164	0x3c9c9d26	0.019117903
165	0x3d38f041	0.045151
166	0x3ad252d7	0.0016046417
167	0x3d746874	0.059669927
168	0x3c95fe2b	0.018309673
169	0xbd3683fa	-0.044559456
170	0xbce25bdf	-0.027631698
171	0xbbccbdd9	-0.0062482175
172	0xbd60e5ce	-0.05490666
173	0xbc3d04d7	-0.011536798
174	0xbd87f5d2	-0.066386834
175	0x3cbb3c4e	0.022855904
176	0x3e30f492	0.17280796
177	0x3e23027b	0.15918915
178	0x3dcc046a	0.099617794
179	0xbd5526e3	-0.05203904
180	0x3e2f43e0	0.17115736
181	0x3e5818eb	0.21103255
182	0x3d251e05	0.040311832
183	0xbd536e7e	-0.051619045
184	0x3c7a516a	0.0152782
185	0x3db8fa74	0.09032145
186	0x3db20197	0.086917095
187	0x3d9790ce	0.07400666
188	0xbd1985dc	-0.037481174
189	0x3d5810bb	0.05275033
190	0x3e37783a	0.17916957
191	0x3e51ed2f	0.20500635
192	0x3d809739	0.062788434
193	0xbc94fb6c	-0.018186294
194	0x3d901e12	0.070369855
195	0x3e308327	0.1723753
196	0x3e420a36	0.18949208
197	0x3d6ecf6d	0.058303285
198	0x3dee8f95	0.1164848
199	0x3ceb4786	0.028720628
200	0xbd967a98	-0.07347602
201	0xbdb24091	-0.08703721
202	0xbd5eddf8	-0.054410905
203	0x3d64b20c	0.05583386
204	0x3d7ed4d4	0.062214687
205	0xbd1e5db8	-0.038663596
206	0xbdb62e73	-0.08895578
207	0xbcca6827	-0.024707867
208	0xbd607808	-0.05480197
209	0x3dca859d	0.09888766
210	0xbd9b1e84	-0.0757418
211	0xbc5e18a6	-0.013555681
212	0xbcbd54e7	-0.023111774
213	0xba58bed2	-0.00082681805
214	0x3dca512c	0.098787636
215	0x3c5c72b7	0.0134550845
216	0xbde2dacb	-0.11076888
217	0x3d610ec8	0.054945737
218	0xbd054a46	-0.032541536
219	0xbc87fbc0	-0.016599536
220	0xbda236cf	-0.0792061
221	0xbd9a8fa4	-0.075469285
222	0xbc4119a4	-0.011785898
223	0xbd8866bb	-0.06660219
224	0xbd2fec1c	-0.04294978
225	0xbdaa6a27	-0.08321028
226	0xbcfcaa26	-0.030842852
227	0xbd05d548	-0.032674104
228	0xbd115858	-0.03548464
229	0x3d14fd08	0.036374122
230	0xbd20ae2a	-0.039228596
231	0xbc907acc	-0.01763668
232	0xbcd32462	-0.025774185
233	0xbcf753e3	-0.030191367
234	0xbd85ec47	-0.06539207
235	0xbdf30cc7	-0.118676715
236	0xbd1af76c	-0.037833616
237	0xbdc9e212	-0.098575726
238	0xbcd8d06c	-0.02646657
239	0xbc3292fc	-0.010899302
240	0xbdd4b780	-0.10386562
241	0xbdcd1a2f	-0.1001476
242	0xbd2e5c69	-0.042568598
243	0xbd8d03e6	-0.06885509
244	0xbda5eb8b	-0.08101567
245	0xbcd6dd7f	-0.026228664
246	0xbd80c6d4	-0.062879235
247	0xbda84203	-0.08215716
248	0xbcbf5bff	-0.023359297
249	0xbd0d519f	-0.034501668
250	0xbda59953	-0.08085885
251	0xbd285a82	-0.04110194
252	0x3c9cf140	0.019158006
253	0xbdaa2004	-0.08306888
254	0x3d325fb4	0.0435483
255	0xbd8b9f36	-0.068174765

conv2.bias f4 [16]
0	0xbadb7278	-0.0016742488
1	0x3d849fd5	0.06475798
2	0xbd36c479	-0.044620965
3	0x3dfe86d9	0.12428064
4	0xbc996c74	-0.018728472
5	0xbd174fba	-0.036941268
6	0x3db24c59	0.087059684
7	0x3b813bce	0.003943897
8	0xbda3f43e	-0.0800557
9	0x3dd5de58	0.10442799
10	0xbd970bbb	-0.07375284
11	0xbcbd2915	-0.023090879
12	0x3d1872a8	0.03721872
13	0xbcac2262	-0.021012489
14	0xbd87fa3a	-0.06639524
15	0xbdba9f97	-0.091124706

fc1.weight f4 [120, 400]
0	0x3d2f50c3	0.04280163
1	0x3d1f93ee	0.038959436
2	0xbd4cd37c	-0.050006375
3	0xbcf7378c	-0.030177854
4	0xbbd81ea5	-0.00659545
5	0xbd427bd5	-0.047481377
6	0xbd13c649	-0.03607777
7	0xbd3033e3	-0.043018233
8	0x3c6a51f6	0.014301768
9	0xbd49b160	-0.049241424
10	0x3d66374e	0.056205086
11	0xbcf80bcb	-0.03027906
12	0xbc9da150	-0.019241959
13	0xbd56818c	-0.05236964
14	0xbd239724	-0.03993906
15	0xbcfca762	-0.030841533
16	0x3c6c5f33	0.014426994
17	0xbca28879	-0.019840466
18	0xbbb6d0e0	-0.005579099
19	0xba450c5c	-0.00075167953
20	0x3c1aab56	0.009440264
21	0xbc64c3e9	-0.013962724
22	0x3c8c1fde	0.01710504
23	0x3c8db6bb	0.017299047
24	0x3c5719e2	0.01312873
25	0x3ab8bbc8	0.0014094049
26	0xbcde0ffd	-0.027107233
27	0xbce75fea	-0.028243978
28	0x3cf454f5	0.029825667
29	0x3c04c3a1	0.008103282
30	0xbd368013	-0.044555735
31	0xbd3971ab	-0.045274418
32	0x3c2f9d93	0.010718721
33	0x3c83c3cd	0.016084576
34	0x3c23c336	0.009995272
35	0x3c9c9909	0.019115942
36	0x3ce1da0f	0.027569799
37	0xbd065380	-0.032794476
38	0xbb5a94e5	-0.0033352908
39	0xbc09000d	-0.0083618285
40	0xbd0af2e8	-0.03392306
41	0x3caded13	0.02123121
42	0xbc90abe1	-0.017660083
43	0x3c1e4227	0.009659327
44	0x3c57aad2	0.013163285
45	0xbc81c3d4	-0.015840448
46	0x3a26c553	0.0006361801
47	0x3bf6fa68	0.007537175
48	0xbd1c4abb	-0.038157206
49	0xbd166750	-0.03671962
50	0x3ba10325	0.004913705
51	0x3d0aa543	0.033849012
52	0xbc46bb72	-0.012129651
53	0xbcb8f2fd	-0.022576803
54	0xbb4cc40b	-0.003124478
55	0xbb6adb8c	-0.0035836427
56	0xbcf6fb7b	-0.030149212
57	0xbbd75d4f	-0.0065724025
58	0x3d1a70db	0.037705284
59	0xbc62f29d	-0.013851789
60	0xbcd59a3b	-0.02607452
61	0x3bc6b373	0.0060638725
62	0xbd35ca8c	-0.044382617
63	0x3bbc3c5f	0.0057445015
64	0x3b8aed5e	0.004239722
65	0xbd3b34d4	-0.045704678
66	0x3be6c8b8	0.0070429705
67	0xbd8e6fdf	-0.069549315
68	0xbc58c164	-0.013229702
69	0x3d034d1a	0.03205595
70	0xbc9fa4e8	-0.019487813
71	0xbbd7724f	-0.006574906
72	0xbd52067b	-0.05127571
73	0xbd5379eb	-0.051629942
74	0xbaad4a58	-0.0013221009
75	0x3d4a5d36	0.0494053
76	0x3c631c21	0.013861687
77	0x3d0fa20e	0.035066657
78	0xbd3b8c82	-0.045788296
79	0x3c36dbbc	0.011160787
80	0xbc9ccf4b	-0.019141814
81	0xbc3f5b2b	-0.011679451
82	0xbbe8806e	-0.007095388
83	0xbd16b54a	-0.036793984
84	0xbb0d409d	-0.0021553405
85	0xbcf0c79c	-0.029392056
86	0x3a40b10a	0.00073505996
87	0x3d3326fc	0.04373835
88	0xbc0b2e07	-0.0084948605
89	0x3d3b6d6b	0.045758646
90	0xbc1a56b4	-0.009420086
91	0xbccfae93	-0.025351798
92	0xbcba0377	-0.02270673
93	0xbd19d085	-0.037552375
94	0xbc09e316	-0.008415958
95	0xbb035b23	-0.0020043335
96	0xb8efe592	-0.00011439169
97	0x3bd392be	0.006456702
98	0x3a9c6eab	0.0011934837
99	0xbc78847f	-0.015168308
100	0x3c3f68b8	0.011682682
101	0xbd04af8d	-0.03239398
102	0x3a8acde5	0.0010589926
103	0x3cd2c46e	0.02572843
104	0xbbc0dc22	-0.005885617
105	0xbd2647bf	-0.040595766
106	0x3c7a9b4c	0.015295815
107	0xbd6ed19f	-0.05830538
108	0xbb9d36e6	-0.004797804
109	0xbbda93a1	-0.006670431
110	0xbd0006c4	-0.031256452
111	0xbd785d1d	-0.060635675
112	0xbc43462d	-0.011918587
113	0xbd4eee59	-0.050520275
114	0x3caf6763	0.021411603
115	0xbd897de1	-0.067134626
116	0x3c6e5c66	0.014548397
117	0xbc8f2e46	-0.01747812
118	0xbb12fa30	-0.0022426955
119	0xbb730cf6	-0.0037086583
120	0xbcedf9d7	-0.029049797
121	0x3d1cf291	0.038317267
122	0xbc068693	-0.008210796
123	0x3ce7fd35	0.02831898
124	0x3d9c2c2e	0.07625614
125	0xbb38dbdc	-0.0028207218
126	0x3cbe8f60	0.023261726
127	0xbca064c6	-0.019579303
128	0x3c4fbaa9	0.012678781
129	0xbc052e50	-0.008128718
130	0xbcdc1953	-0.026867544
131	0x3c8bc7e0	0.017063081
132	0xbd401a22	-0.046899922
133	0xbc030405	-0.007996564
134	0x3bc8698f	0.006116099
135	0x3d2af8ec	0.041741297
136	0xbc8bb9e5	-0.017056415
137	0xbd2e7eb2	-0.042601295
138	0xbd16ddda	-0.036832668
139	0xbd1bc621	-0.038030747
140	0x3d4b9c66	0.0497097
141	0x3d81fab8	0.06346649
142	0x3ce3d34e	0.027810719
143	0xbcf495b2	-0.029856537
144	0x3c0cb6f5	0.008588542
145	0x3d017f6a	0.031615652
146	0x3d6ebc43	0.05828501
147	0x3d9027b5	0.070388235
148	0x3d91d0cc	0.07119903
149	0x3dac4133	0.08410873
150	0x3d6be705	0.057593364
151	0xbd29ee2d	-0.041486908
152	0x3ca850a3	0.020546263
153	0x3ce9bb8f	0.028531818
154	0xbca7e441	-0.020494582
155	0xbc6c75b7	-0.014432362
156	0xbc80431a	-0.015656997
157	0xbc59fe3b	-0.013305242
158	0x3d5046a4	0.05084862
159	0x3d352e08	0.044233352
160	0xbd5ecac6	-0.0543926
161	0xbd1a988f	-0.037743147
162	0x3cfbd3e6	0.03074069
163	0xbcda4540	-0.02664435
164	0x3d305167	0.04304638
165	0x3b02c69c	0.0019954806
166	0x3ced3f2c	0.028960787
167	0xbce0e9a5	-0.02745516
168	0x3d437c2d	0.047725845
169	0xbd264d7d	-0.040601242
170	0xbd291082	-0.04127551
171	0x3d2a75ce	0.041616254
172	0x3cfd10d3	0.030891811
173	0x3ce461ea	0.02787872
174	0x3d1662fe	0.0367155
175	0xbd19df5e	-0.037566535
176	0xbd359e66	-0.044340514
177	0xbb0f5614	-0.0021871375
178	0xbabd71f4	-0.0014453516
179	0xbd778d03	-0.060437214
180	0xbd0dc04e	-0.034607224
181	0xbd0172a3	-0.031603467
182	0xbd41b670	-0.047293127
183	0x3b428fc8	0.002968775
184	0xbd17ba75	-0.037043054
185	0x3d1133ba	0.03544972
186	0xbc7ed984	-0.015554789
187	0x3caba48b	0.020952484
188	0x3b775275	0.0037738357
189	0x3ccc87c7	0.024967087
190	0xbba2d9f3	-0.004969829
191	0xbcd76234	-0.026291944
192	0x3c0e97a9	0.008703151
193	0xbcbae92f	-0.022816269
194	0x3d7b8fdf	0.061416503
195	0x3d5fd45c	0.05464588
196	0x3ba07a3c	0.004897384
197	0xbc994115	-0.018707791
198	0x3d40e79d	0.047095884
199	0x3d7cb62b	0.061697166
200	0xbb8732e5	-0.00412594
201	0xbc0af5cb	-0.008481453
202	0x3d539759	0.05165801
203	0x3d859cbb	0.065240346
204	0xbd2553ba	-0.04036305
205	0x3d82dfe9	0.06390364
206	0x3cffdf6e	0.03123447
207	0xbb86c449	-0.0041127545
208	0x3d00ee2a	0.03147713
209	0xbab252ed	-0.0013605036
210	0xbc6be226	-0.01439718
211	0xbc9712a0	-0.018441498
212	0xbd522f76	-0.051314794
213	0xbca94369	-0.020662026
214	0xba850ee8	-0.0010151537
215	0x3c503e50	0.012710169
216	0x3cbef5e6	0.023310613
217	0xbd3c9c9c	-0.04604779
218	0x3d3d6541	0.04623914
219	0xbcea1f44	-0.028579362
220	0x3d123bb8	0.035701483
221	0x3d333096	0.043747507
222	0x3c59309a	0.013256216
223	0x3c929560	0.017893493
224	0x3bcb17c2	0.0061979005
225	0x3d46df3c	0.048552737
226	0x3d03fba8	0.03222242
227	0xbc34c5b4	-0.011033464
228	0x3cddde5b	0.027083566
229	0xbbc7009d	-0.006073071
230	0xbc874220	-0.016511023
231	0xbae32e01	-0.0017332436
232	0x3c5cc0f7	0.013473741
233	0x3d1c68ea	0.03818599
234	0xbcc2dea7	-0.02378781
235	0xbceef21d	-0.029168183
236	0x3ba12fe1	0.0049190377
237	0x3c277198	0.010219954
238	0x3cc5580f	0.024089841
239	0xbcfd075c	-0.030887298
240	0xbd261944	-0.04055144
241	0xbd46e723	-0.048560273
242	0xbd4f3846	-0.050590776
243	0xbd76b5b9	-0.060231898
244	0xbac2b8e1	-0.0014856124
245	0x3d69778c	0.056998774
246	0x3caade42	0.020857934
247	0xbc9b5a0d	-0.018963838
248	0x3c308286	0.010773307
249	0x3c8389e2	0.016056959
250	0xbd3df9f3	-0.04638095
251	0xbc014ed9	-0.007892334
252	0x3cda676e	0.026660647
253	0x3b3dfbba	0.0028989152
254	0xbd49de14	-0.049284056
255	0xbcf6ef13	-0.030143296

fc1.bias f4 [120]
0	0x3d12432b	0.035708588
1	0x3cf53443	0.029932147
2	0x3d10d9a9	0.035363827
3	0x3b62413f	0.0034523753
4	0xbc04d7d3	-0.008108097
5	0x3b578dcb	0.0032890912
6	0x3d171770	0.036887586
7	0x3c107c7b	0.008818741
8	0xbcd37258	-0.02581136
9	0xbcb51745	-0.022105822
10	0x3c86c667	0.016452027
11	0x3bc2842c	0.0059361663
12	0xbc681a2d	-0.014166397
13	0xbd2718e0	-0.040795207
14	0x3d925334	0.07144776
15	0x3dc71bd5	0.097221054
16	0xbcc2d0a6	-0.023781132
17	0xbcb4e6c7	-0.0220827
18	0x3ca3e68a	0.02000739
19	0x3d85e484	0.065377265
20	0xbc55ed7c	-0.013057109
21	0xbc106aae	-0.008814497
22	0x3ca8f81b	0.020626118
23	0xbd4759d5	-0.048669655
24	0x3ca437e0	0.020046175
25	0xbcd97f46	-0.026549947
26	0xbcff9d0d	-0.031202817
27	0xbcddf658	-0.027095005
28	0xbd256b62	-0.04038561
29	0x3d6204b5	0.05518027
30	0x3b44c656	0.0030025444
31	0xbb989a74	-0.004657084
32	0xbce718cd	-0.028210068
33	0xbc65a29e	-0.014015822
34	0xbd3b467d	-0.04572152
35	0x3d7fc27f	0.062441345
36	0x3d399b20	0.045313954
37	0xbccfbbbb	-0.025358072
38	0xbd25ac88	-0.04044774
39	0xbd20ff88	-0.039306194
40	0xbce7cc01	-0.028295519
41	0x3d456b1a	0.048197843
42	0xb9e94086	-0.00044489297
43	0x3bd782b8	0.006576862
44	0x3d73ba80	0.059504032
45	0xbd387762	-0.045035727
46	0xbb7bc8f1	-0.003841933
47	0x3c8a25a5	0.016863653
48	0x3d14f41b	0.03636561
49	0xbc6e10cc	-0.014530372
50	0xbc82bdb9	-0.015959607
51	0xba124203	-0.00055792945
52	0x3d85873c	0.065199345
53	0x3d5945ab	0.053044956
54	0xbc9f5e4c	-0.019454144
55	0xbcd16f33	-0.02556572
56	0xbb9da580	-0.004810989
57	0xbcaec886	-0.021335851
58	0xbd034b68	-0.032054335
59	0x3c9d5287	0.019204391
60	0x3b7b01cb	0.003830063
61	0xbcb30389	-0.021852272
62	0xbc90faad	-0.017697657
63	0xbd51f3d6	-0.05125793
64	0x3d892b20	0.066976786
65	0x3d5d2a38	0.05399534
66	0xbcaee6bd	-0.021350259
67	0x3bac2cb2	0.0052543515
68	0x3d1c606f	0.038177904
69	0xbcc42a5e	-0.023945983
70	0x3d2972ab	0.04136912
71	0x3c6bf5dc	0.014401879
72	0x3cd2d106	0.025734436
73	0xbd0e5961	-0.034753207
74	0x3c09c730	0.008409306
75	0xbd310cef	-0.043225225
76	0x3a98e8c7	0.0011666053
77	0xbd072cc0	-0.03300166
78	0x3cabcde8	0.020972207
79	0xbd2025cc	-0.039098546
80	0x3c3b91d8	0.011448346
81	0x3c90e83f	0.017688869
82	0xbd65e8da	-0.056130268
83	0x3d739297	0.05946597
84	0xbccd0626	-0.025027346
85	0xbcc61aaa	-0.024182636
86	0x3d34d374	0.04414697
87	0x3c97aafc	0.018514149
88	0xbc6dbe5c	-0.014510717
89	0x3d5db38f	0.05412632
90	0x3c03fc78	0.008055799
91	0x3867378c	5.5126424e-05
92	0x3d1fe271	0.03903431
93	0x3b9dae0e	0.0048120087
94	0x3d21630c	0.0394011
95	0x3cf0b772	0.029384349
96	0x3d6850ef	0.05671781
97	0xbcae066a	-0.021243293
98	0x3c706631	0.014672802
99	0x3cb89c17	0.022535367
100	0x3d5e511e	0.054276578
101	0x3cde5081	0.027137997
102	0x3cc5c060	0.024139583
103	0x3d86253c	0.06550071
104	0x3c3430a3	0.010997924
105	0x3d14c0c6	0.036316656
106	0x3d704bb5	0.05866595
107	0x3d809290	0.062779546
108	0xbd338a28	-0.043832928
109	0x3cd17f6b	0.025573453
110	0x3d448d44	0.047986284
111	0x3c1d833c	0.009613808
112	0x3b842758	0.0040330105
113	0x3d1d9690	0.038473666
114	0x3c7ced98	0.015437506
115	0xbd91821d	-0.07104895
116	0xbd626c52	-0.055279084
117	0xbbdf6d70	-0.006818466
118	0x3b18a726	0.0023292988
119	0xbcb5039d	-0.02209645

fc2.weight f4 [84, 120]
0	0xbdae2d01	-0.085046776
1	0x3d06747a	0.032825924
2	0xbdaa967c	-0.08329484
3	0xbc7925c0	-0.015206754
4	0xbda80de9	-0.08205778
5	0x3db5b675	0.088726915
6	0x3cd4ac89	0.025961177
7	0x3d7bb208	0.06144908
8	0x3c6351fa	0.013874525
9	0xbd20b1b9	-0.03923199
10	0xbdb5c88a	-0.088761404
11	0x3d90db35	0.070730604
12	0x3d3db6cb	0.046316903
13	0xbc5ba9e9	-0.013407209
14	0xbdb15529	-0.08658821
15	0xbd57d6e7	-0.05269518
16	0xbd93e9bb	-0.07222315
17	0x3cb91d4e	0.022596981
18	0x3d3a08cf	0.045418557
19	0xbdbedad1	-0.0931908
20	0xbd27aa61	-0.04093397
21	0xba30ecaf	-0.0006749136
22	0x3d9a9921	0.07548738
23	0x3d3512a2	0.044207223
24	0xbd3b3c5a	-0.045711853
25	0xbd358c1a	-0.044323064
26	0xbbd5439f	-0.006508305
27	0xbd69bfcf	-0.05706769
28	0x3d860ead	0.06545768
29	0x3cde93db	0.027170112
30	0xbd3a2adf	-0.04545104
31	0xbd501c52	-0.05080826
32	0xbbf2e0ad	-0.0074120373
33	0x3cf6f966	0.03014822
34	0x3d245462	0.040119536
35	0xbd619310	-0.05507189
36	0x3d39991c	0.045312032
37	0x3d65e418	0.05612573
38	0xbdabce2b	-0.08388933
39	0xbd97bc16	-0.074089214
40	0x3b9d894f	0.004807628
41	0x3c159e77	0.009132019
42	0x3db9f7c8	0.09080464
43	0x3cabe72a	0.020984251
44	0x3d58d635	0.05293866
45	0xbd6f598a	-0.058435
46	0x3bdbfbdb	0.006713373
47	0x3d482375	0.04886194
48	0x3d9f368b	0.07774075
49	0xbd9d3e1f	-0.07677864
50	0x3b8e3fdb	0.0043411083
51	0xbda1fc83	-0.07909491
52	0xbd39be79	-0.045347665
53	0x3daea40a	0.08527382
54	0xbd112989	-0.03544
55	0x3c5a1f77	0.013313166
56	0x3d55ad25	0.052167077
57	0xbce3dce4	-0.02781529
58	0x3d9d48e9	0.07679922
59	0xbd6db98e	-0.058038287
60	0xbd3ced1a	-0.046124555
61	0xbd9b2243	-0.07574894
62	0x3cbf15d5	0.02332584
63	0xbdb661a1	-0.0890534
64	0xbd503add	-0.050837386
65	0xbd8ff32f	-0.070288055
66	0xbc05c6c9	-0.00816507
67	0x3d8ed3c0	0.06973982
68	0xbb02af72	-0.0019941
69	0xbca087b8	-0.019595966
70	0xbd94efd5	-0.07272307
71	0x3d251c0b	0.040309947
72	0xbd7c4ebb	-0.06159852
73	0x3d8cdc84	0.068779975
74	0xba924f55	-0.0011162559
75	0x3dd30bf4	0.10305014
76	0x3d9b2f81	0.0757742
77	0x3d82a77c	0.06379601
78	0x3d6b16a3	0.057394635
79	0xbd4ab448	-0.049488336
80	0xbd13e585	-0.03610756
81	0xbdadc584	-0.08484939
82	0xbd3da400	-0.04629898
83	0x3ce10716	0.0274692
84	0x3ceb2f77	0.028709156
85	0xbd709bb3	-0.058742236
86	0x3d41b975	0.047296006
87	0xbb16d0ad	-0.0023012564
88	0xbd4942c6	-0.049135946
89	0x3d875802	0.06608583
90	0xbd3d1339	-0.04616091
91	0xbbae34a6	-0.005316335
92	0x3ca1a5ff	0.019732473
93	0x3d23d5b4	0.039998725
94	0xbd6d2711	-0.057898585
95	0x3da70a9a	0.08156319
96	0x3d8ae159	0.06781263
97	0x3d616a76	0.05503317
98	0xbd7d092f	-0.061776336
99	0xbd4f8ef6	-0.050673448
100	0xbdc5adb6	-0.09652273
101	0xbd9a5e58	-0.07537526
102	0x3dd17992	0.10228266
103	0xbd715880	-0.05892229
104	0x3cd30de7	0.025763465
105	0x3da3b80a	0.07994087
106	0xbd87d03a	-0.06631513
107	0xbc97df0a	-0.01853897
108	0xbc7661b3	-0.015037942
109	0xbd95fc78	-0.07323545
110	0xbd5053cb	-0.05086116
111	0x3d5b6275	0.053560693
112	0xbd96fc75	-0.07372371
113	0xbd9026c2	-0.070386425
114	0xbcd160d2	-0.025558863
115	0xbda046b9	-0.07825989
116	0xbb356d7d	-0.0027683668
117	0xbdb0b1d1	-0.08627666
118	0xbd11b1e6	-0.035570048
119	0x3d7558da	0.05989919
120	0xbd9af78e	-0.075667486
121	0x3d33476f	0.043769296
122	0xbdba8934	-0.09108201
123	0x3ba8492e	0.005135677
124	0xbd4226a6	-0.04740014
125	0x3d8c65e4	0.068553716
126	0x3da363a5	0.0797799
127	0xbc912add	-0.017720634
128	0xbd234c29	-0.039867554
129	0x3cdf722e	0.027276125
130	0x3da64271	0.081181414
131	0xbd343177	-0.043992486
132	0x3c8f0cfe	0.01746225
133	0x3d8ec551	0.06971229
134	0x3b6966d7	0.0035614276
135	0x3cec5eff	0.028853891
136	0xbdaab8ed	-0.08336053
137	0xbccda0c9	-0.025101082
138	0xbdb66b1a	-0.08907147
139	0x3db32cd3	0.08748784
140	0x3db0406f	0.0860604
141	0x3d748167	0.05969372
142	0x3beb747b	0.0071855164
143	0x3d840ffd	0.06448362
144	0xbcd02f4e	-0.025413182
145	0x3c700489	0.014649519
146	0xbcfd02cc	-0.030885123
147	0xbc9c7200	-0.019097328
148	0xbda20788	-0.07911593
149	0xbd60eacd	-0.054911423
150	0xbc528c12	-0.012850778
151	0x3ca2e0e1	0.019882621
152	0xbc851b90	-0.016248494
153	0x3dba5788	0.090987265
154	0xbd81c9db	-0.06337329
155	0x3d331855	0.043724377
156	0xbc928009	-0.017883318
157	0x3abf2204	0.0014582281
158	0x3a86b81d	0.0010278259
159	0x3d8a6c7e	0.067589745
160	0xbdb08d9e	-0.08620761
161	0x3d80b7bf	0.06285047
162	0x3cd16920	0.025562823
163	0x3ccbc315	0.024873296
164	0xbc33eb6e	-0.010981424
165	0xbc9580fb	-0.01824998
166	0x3cc90792	0.024539743
167	0x3dff28de	0.12458967
168	0xbd212a94	-0.039347246
169	0xbb468160	-0.0030289516
170	0x3d34645e	0.04404103
171	0x3ca0b2ce	0.01961651
172	0xbd99afc1	-0.075042255
173	0xbd422835	-0.047401626
174	0xbd5ef53a	-0.054433085
175	0xbcf911ab	-0.030403933
176	0x3d16bb8c	0.036799952
177	0x3cfb5ceb	0.030683955
178	0x3d9a2789	0.07527072
179	0xbd9c9332	-0.07645263
180	0x3da8a91a	0.082353786
181	0xbdbb0936	-0.09132616
182	0xbd8dc149	-0.06921632
183	0xbd7e79fd	-0.062128056
184	0x3d9ff7fa	0.0781097
185	0xbc36cead	-0.011157674
186	0xbd1a05ff	-0.037603375
187	0xba964d5e	-0.0011467149
188	0x3d6c93b2	0.05775804
189	0xbcbb45bd	-0.022860402
190	0xbd54d97f	-0.051965233
191	0xbd12bdba	-0.03582547
192	0x3cb3b406	0.021936428
193	0xbc929501	-0.017893316
194	0xbd998ed9	-0.07497949
195	0x3d2ef329	0.042712364
196	0x3ca77fef	0.020446746
197	0x3d943757	0.07237118
198	0xbd5fd0cd	-0.054642487
199	0x3bed6697	0.0072448957
200	0x3d695322	0.056964047
201	0xbd24da7b	-0.04024742
202	0x3d1daef2	0.03849692
203	0x3d65a7b8	0.056068152
204	0x3d22a982	0.039712436
205	0x3b40b8f5	0.0029407118
206	0xbc7bc26b	-0.015366177
207	0xbd976832	-0.073929206
208	0xbc5521e0	-0.013008565
209	0xbd58d014	-0.052932814
210	0xbc83a936	-0.016071897
211	0xbd79a9b7	-0.06095287
212	0x3d20f7ea	0.03929893
213	0xbd96a60d	-0.073558904
214	0xbc150ed7	-0.009097776
215	0xbd51f56e	-0.05125945
216	0xbcf130ba	-0.02944218
217	0x3dd12946	0.102129504
218	0x3b5fe88c	0.0034165708
219	0xbd0b6c07	-0.03403857
220	0xbda0efde	-0.07858251
221	0xbce649f5	-0.028111437
222	0xbc50e0cf	-0.012748911
223	0x3d350644	0.04419543
224	0xbd96a32c	-0.07355341
225	0x3c9c2de6	0.019064855
226	0x3d27a433	0.040928077
227	0xbda3c9cb	-0.07997473
228	0xbd981bc2	-0.074271694
229	0x3da0529d	0.07828257
230	0x3b8d275f	0.004307672
231	0x3d280263	0.0410179
232	0xbbc37718	-0.005965125
233	0xbd9e6745	-0.07734541
234	0xbd9262e8	-0.07147771
235	0x3cb34c3b	0.021886935
236	0x3d88a471	0.0667199
237	0xbb042903	-0.0020166046
238	0xbc61a7d4	-0.0137729235
239	0xbd312ec4	-0.04325749
240	0xbdae2279	-0.08502669
241	0xbc6a55e0	-0.014302701
242	0x3ce327ca	0.027728934
243	0x3b3144a0	0.002704896
244	0x3d997884	0.0749369
245	0xbc76c2b3	-0.015061068
246	0xbd4f6dff	-0.05064201
247	0x3cb4fd90	0.022093564
248	0xbc25a538	-0.010110192
249	0xbc9549a8	-0.018223599
250	0x3d802da1	0.06258703
251	0x3d4f172f	0.05055922
252	0xbd35e2f5	-0.044405896
253	0x3d239d53	0.039944958
254	0xbd9cd28d	-0.07657347
255	0xbd0eb4fa	-0.03484056

fc2.bias f4 [84]
0	0x3d83ae48	0.06429726
1	0x3dbc6333	0.09198608
2	0xbdac1b9e	-0.08403705
3	0xbd6a111b	-0.05714522
4	0x3de3ffb0	0.11132753
5	0x3e396088	0.1810323
6	0x3d118c6c	0.035534307
7	0x3db1e9b7	0.08687156
8	0x3d73c74a	0.05951623
9	0x3caeeedd	0.021354133
10	0x3ca46904	0.020069607
11	0x3dadbbed	0.084831096
12	0x3e25b994	0.16184074
13	0xbd88dd75	-0.066828646
14	0x3c7a1902	0.015264751
15	0x3c0081f5	0.007843484
16	0xbd4be049	-0.049774442
17	0x3deb3e56	0.11486499
18	0xbd1e5e4b	-0.038664144
19	0xbce98e8f	-0.02851036
20	0xbc05913d	-0.008152303
21	0xbd7916a2	-0.0608126
22	0xbc6bd5d0	-0.014394239
23	0x3deba034	0.11505166
24	0x3ca341e9	0.01992889
25	0x3e0ca605	0.13735206
26	0xbcc96fee	-0.024589505
27	0xbcc50292	-0.024049077
28	0xbd1cecfd	-0.038311947
29	0xbd077602	-0.033071525
30	0xbdcef861	-0.10105968
31	0xbda80349	-0.082037516
32	0x3d549c46	0.051906846
33	0xbd8a1729	-0.06742699
34	0x3d829e5b	0.0637786
35	0x3d8ece19	0.06972904
36	0x3d270046	0.040771745
37	0x3da7b181	0.08188153
38	0xbd5d7586	-0.054067157
39	0xbd3a90da	-0.045548297
40	0x3d2dfa0f	0.042474803
41	0x3d8720ab	0.06598028
42	0x3e1dfa68	0.15427554
43	0xbd3b474f	-0.045722302
44	0xbb7e55a6	-0.0038808375
45	0xbdae24de	-0.085031256
46	0x3d02e8b5	0.031960208
47	0xbdb1d21f	-0.086826555
48	0x3d0420b9	0.03225777
49	0xbd731b6e	-0.05935233
50	0xbdcf9f75	-0.10137836
51	0xbc23e3f7	-0.0100030815
52	0x3b965442	0.004587681
53	0xbdbb325b	-0.09140464
54	0xbd36c766	-0.044623755
55	0x3e04167f	0.12899207
56	0xbd697d88	-0.05700448
57	0xbd136922	-0.035988934
58	0x3d1d56f0	0.03841299
59	0xbdabaae5	-0.08382205
60	0xbc28f9ff	-0.01031351
61	0x3d16e3c0	0.036838293
62	0xbd91db94	-0.07121959
63	0xbd2160fa	-0.039399125
64	0xbc93b990	-0.018032819
65	0xbdba5a68	-0.09099275
66	0xbdaf2185	-0.08551315
67	0x3d1bdea8	0.03805414
68	0x3ce27c64	0.027647205
69	0xbd08149a	-0.033222772
70	0xbdd948ff	-0.10609626
71	0x3df5a59e	0.119944796
72	0x3b1aaa87	0.0023600177
73	0x3d4565df	0.048192855
74	0xbbdd51c3	-0.0067541315
75	0xbd2389f2	-0.039926477
76	0xbc57eed8	-0.013179503
77	0xbd444f3f	-0.047927137
78	0x3e0d6d3a	0.13811198
79	0x3bd76e7b	0.0065744496
80	0x3df58fe5	0.11990336
81	0xbdb16736	-0.08662264
82	0xbd55bf18	-0.052184194
83	0x3c8b0d64	0.016974159

fc3.weight f4 [10, 84]
0	0xbd2ef0cf	-0.04271012
1	0x3d59c961	0.053170566
2	0xbd70e57b	-0.0588126
3	0xbd6d49d1	-0.057931725
4	0xbe3dae1d	-0.1852345
5	0x3e55eff7	0.2089232
6	0x3c267c6e	0.010161502
7	0x3b39f106	0.002837242
8	0x3dafdab0	0.08586633
9	0xbc828735	-0.015933612
10	0x3ceacbca	0.028661627
11	0x3da98db7	0.08278983
12	0xbd2ba060	-0.041900992
13	0x3d99dc12	0.07512678
14	0xbd4cfd02	-0.050045975
15	0x3d628270	0.055300176
16	0x3dbc0b16	0.09181802
17	0x3e15e385	0.14637573
18	0x3d9ac964	0.075579435
19	0x3d2111e2	0.039323695
20	0xbdbb8b52	-0.091574326
21	0x3bcb76c1	0.006209225
22	0xbd7d9c32	-0.061916538
23	0x3e242ee1	0.16033508
24	0xbe1d6e84	-0.1537419
25	0x3e236cc6	0.15959463
26	0x3cc02590	0.023455411
27	0xbe31fb55	-0.17381032
28	0x3c8ad8d6	0.016949099
29	0x3dee6c55	0.116417564
30	0xbdd429ab	-0.1035951
31	0x3dbeb4de	0.093118414
32	0x3c42cc02	0.01188946
33	0x3d2cd703	0.04219724
34	0x3e482753	0.19546251
35	0xbdb6366f	-0.08897101
36	0xbda99288	-0.08279902
37	0x3d9c2e82	0.07626058
38	0xbd107c2a	-0.035274662
39	0x3dcdcd42	0.100489154
40	0xbe02fff5	-0.12792952
41	0xbdbcb041	-0.09213305
42	0xbd56ea5e	-0.052469604
43	0x3d789233	0.0606863
44	0x3d274434	0.040836528
45	0x3d41e593	0.04733808
46	0xbaf561e6	-0.0018721193
47	0xbd705eb0	-0.05868405
48	0x3db8a183	0.09015181
49	0xbd29df3c	-0.04147266
50	0xbe293a78	-0.1652621
51	0xbca74638	-0.020419225
52	0xbca3e202	-0.02000523
53	0x3db8d67c	0.09025285
54	0xbdc207c1	-0.09474135
55	0xbd181f80	-0.037139416
56	0x3d42eaa0	0.047587037
57	0xbd0c83fe	-0.034305565
58	0xbd057077	-0.032577958
59	0xbda7fa50	-0.0820204
60	0x3cf28498	0.029604241
61	0x3e394bb5	0.18095286
62	0x3d3f3808	0.046684295
63	0x3ddebfc8	0.10876423
64	0x3c7e2f4a	0.015514204
65	0xbd349e94	-0.044096544
66	0x3d678cc6	0.056530736
67	0x3d9f37de	0.07774328
68	0x3e13a7c6	0.14419469
69	0xbc808c92	-0.01569203
70	0xbe491f4c	-0.19640845
71	0xbdfc556c	-0.123209804
72	0x3c48b3b7	0.012249879
73	0x3c4cfe85	0.012511854
74	0xbd72cf1f	-0.059279557
75	0x3d12cc16	0.035839163
76	0x3d53cbc9	0.051708017
77	0xbdf51ce5	-0.11968402
78	0x3e2028e2	0.15640596
79	0xbd742a49	-0.05961064
80	0xbe5198dd	-0.20468469
81	0x3e2593c4	0.1616965
82	0x3ce33534	0.02773533
83	0x3d5cb7f9	0.053886387
84	0xbd9f49bd	-0.07777736
85	0xbdf4ee28	-0.11959487
86	0xbdac882a	-0.08424409
87	0xbac260bd	-0.0014829856
88	0x3dba2422	0.09088923
89	0xbd35b6ab	-0.04436366
90	0xbc039ff3	-0.00803374
91	0x3de0ef51	0.10983146
92	0xbdf8e68b	-0.121533476
93	0xbe02a0d9	-0.12756671
94	0xbda5c69a	-0.08094521
95	0xbe490d09	-0.19633879
96	0xbe22cf89	-0.15899481
97	0x3d07cf4b	0.033156674
98	0x3b846b14	0.004041085
99	0xbe043f13	-0.12914686
100	0x3de55816	0.11198442
101	0x3e430a28	0.19046843
102	0xbdd255ab	-0.10270246
103	0xbd8aebc9	-0.06783254
104	0x3c9686a9	0.018374758
105	0xbdbdeb7a	-0.09273429
106	0xbc51ee69	-0.012813189
107	0xbe3c0d4e	-0.1836445
108	0xbd2ca28b	-0.0421472
109	0xbdce19eb	-0.10063537
110	0x3c656199	0.01400032
111	0x3df6a95d	0.12044022
112	0x3c3c1dba	0.011481697
113	0xbe2a14b4	-0.1660946
114	0xbe0b3326	-0.1359373
115	0xbd4629c8	-0.04837969
116	0xbe86db6e	-0.26339287
117	0x3cd9e8d0	0.026600271
118	0xbc78f14b	-0.0151942475
119	0x3e5f42ce	0.21802828
120	0xbd57f931	-0.05272788
121	0xbb02de64	-0.001996898
122	0x3d9b7638	0.07590908
123	0x3d9bc19a	0.07605286
124	0x3ceb6d84	0.028738745
125	0xbe00c766	-0.12576064
126	0xbe4e6a53	-0.20157747
127	0x3e47afdf	0.19500683
128	0xbd7bd87d	-0.061485756
129	0x3da9cf03	0.082914375
130	0x3d8a589c	0.06755182
131	0x3de6f890	0.11277878
132	0xbe51d494	-0.20491248
133	0xbd33d201	-0.043901447
134	0xbd2908f9	-0.041268323
135	0xbd906630	-0.07050741
136	0xbcdab5b9	-0.02669798
137	0xbd72a511	-0.05923945
138	0x3e0bb0cd	0.13641663
139	0xbda52e67	-0.08065491
140	0x3dfa61e0	0.122256994
141	0xbcb16554	-0.021654762
142	0x3dfe640a	0.12421425
143	0xbd8657ab	-0.0655969
144	0x3d8922aa	0.06696065
145	0xbd058e76	-0.032606564
146	0x3de83764	0.1133869
147	0x3e42e751	0.19033553
148	0xbd5850fd	-0.05281161
149	0x3dcc511c	0.09976408
150	0xbe113042	-0.14178565
151	0xbd7eb667	-0.06218567
152	0xbe4bd977	-0.19907175
153	0xbdd981c6	-0.106204554
154	0x3e099ceb	0.13438766
155	0x3c9b10be	0.018928882
156	0x3ca40920	0.020023882
157	0xbdc764b9	-0.09736008
158	0xbd2308eb	-0.039803427
159	0x3cf918c9	0.030407326
160	0xbc304c56	-0.010760387
161	0xbd77bb3d	-0.0604813
162	0x3e22cad2	0.15897682
163	0x3d78aaa0	0.060709596
164	0xbe3ffd5d	-0.18748994
165	0x3e1e927f	0.15485571
166	0x3c628c1c	0.01382735
167	0x3ce25265	0.02762718
168	0x3d2371d4	0.039903477
169	0x3d408070	0.046997488
170	0xbdbf8557	-0.093516044
171	0xb94cd323	-0.0001953361
172	0x3de02f96	0.10946576
173	0x3c1d4acd	0.009600353
174	0x3cb65a48	0.022259846
175	0xbdd6cdc8	-0.104884684
176	0x3dcf61d7	0.10126083
177	0x3cbc58f4	0.022991635
178	0xbd0ac17e	-0.033875935
179	0x3dd5f7a7	0.104476266
180	0x3d2d1447	0.042255666
181	0x3e0eb910	0.13937783
182	0xbdb46174	-0.0880765
183	0xbc711e8b	-0.014716755
184	0x3dd5f2dd	0.10446713
185	0x3e08833d	0.13331313
186	0x3dbf4263	0.09338834
187	0xbd0091ce	-0.03138905
188	0x3d797a84	0.060907856
189	0xbae0a4ff	-0.0017139016
190	0x3e15a1b4	0.14612466
191	0xbcaa3273	-0.02077601
192	0x3cb56e31	0.02214727
193	0x3e643685	0.22286423
194	0x3dbc06d6	0.09180991
195	0xbda2ea06	-0.07954793
196	0x3e0f75f2	0.14009836
197	0x3e3ba96c	0.18326348
198	0x3e065303	0.13117604
199	0x3db6e95b	0.08931228
200	0xbbb19a7e	-0.005420028
201	0xbdb2db4a	-0.08733232
202	0xbdded7be	-0.10880993
203	0x3c3116b4	0.0108086355
204	0xbd4bc57d	-0.049748886
205	0xbbafb0ee	-0.005361668
206	0x3d277636	0.04088422
207	0x3daffe17	0.08593386
208	0xbe259215	-0.16169007
209	0x3d0395f7	0.03212544
210	0x3e806e27	0.2508404
211	0xbde05960	-0.10954547
212	0xbcd2880f	-0.025699643
213	0xbcc048ba	-0.023472179
214	0x3dcfe017	0.101501636
215	0x3d7151c3	0.058915865
216	0x3c40b60e	0.011762155
217	0xbb6c5d3e	-0.003606632
218	0xbe09e8ce	-0.13467714
219	0xbd0febcf	-0.035136994
220	0xbbaa2ddf	-0.0051934565
221	0xbb1d6d7b	-0.0024021554
222	0x3b7915e0	0.0038007423
223	0xbdbb81ab	-0.091555916
224	0x3d4ccaae	0.049997978
225	0x3cb2dad0	0.021832854
226	0xbe1391a1	-0.14411022
227	0xbd8767e3	-0.06611612
228	0x3d918453	0.07105317
229	0xbcc5f0a5	-0.0241626
230	0xbd24b12e	-0.040208034
231	0xbdf84766	-0.12122993
232	0xbdd26202	-0.102726
233	0xbdd4fa18	-0.10399264
234	0xbdc4f618	-0.09617251
235	0xbc78e196	-0.015190503
236	0x3e71ad76	0.23601326
237	0xbdbc6572	-0.09199037
238	0xbda850ca	-0.08218534
239	0x3e2b327b	0.16718476
240	0x3dc2fb9c	0.09520647
241	0xbd08ccc3	-0.0333984
242	0xbdb79b7c	-0.08965203
243	0x3da717aa	0.081588104
244	0xbd9524f8	-0.07282442
245	0x3c052dd7	0.008128605
246	0x3df432b2	0.11923732
247	0xbdbec03e	-0.09314011
248	0x3e17b66d	0.14815684
249	0xbe5d2139	-0.21594705
250	0x3e02c5ea	0.1277081
251	0x3db0a29b	0.086247645
252	0x3daf91f8	0.08572763
253	0xbda40d8d	-0.08010397
254	0x3d38ec69	0.045147333
255	0xbdc3669b	-0.09541055

fc3.bias f4 [10]
0	0x3d032c87	0.032024886
1	0xbe09ca1b	-0.13456003
2	0x3e1a2f37	0.15057074
3	0x3d937482	0.071999565
4	0x3e5b5687	0.21419726
5	0xbc991df2	-0.018691037
6	0x3d602ca1	0.05473006
7	0xbe349853	-0.17636232
8	0x3e8592ce	0.26088566
9	0xbe36ff48	-0.1787082
